my_mnist_best_model.pt (torch, 439873 bytes, 6 tensors)

linear1.weight f4 [128, 784]
00000000: 07d9 04bd 1c12 6bbc 4ac7 9e3b c8eb 153b
00000010: 8cb0 27bd 463d 58bc 3a74 79bc 7da5 c23c
00000020: b4f6 00bd ca89 08bc 892a bb3c 89f6 dc3c
00000030: 60e4 79bc b34b 06bd 9aca cdbc c589 193c
00000040: f67f 7abc 851a 96bc fba3 12bd 57da b5bc
00000050: 1436 23bd 1ef7 deb9 0bb4 ecbc 8f64 21bd
00000060: 1f1a 1fbd 623e 11bc 256a d33c 81b3 713c
00000070: 4bae dfbc dc05 d5ba ddaa 1f3c 4823 413c
00000080: 755a fbbc e66a 16bd 08e4 a8bc 3707 5c3a
00000090: abc2 26bd 22e5 b0bc 222b 13bb 9b79 d53c
000000a0: ab9b 29bc 72f4 963c 61d7 80bc 1787 333a
000000b0: 35b4 1cbc 2224 1cbd 170c 25bd b0fb 0abc
000000c0: 6097 00bd 26e9 02bc d893 393c d2bc 50bc
000000d0: 404c d13b fffb 87b9 90af 30bd 942a dcba
000000e0: 09c0 9ebc 1457 d83c 380a 0e3c 2064 b03c
000000f0: 894f fabc c3e9 19bd c303 be3c b60f 683c
00000100: 2c78 28bd 97f5 ffbc 8e06 413c 964f aabc
00000110: bc65 853c 5e33 f7bb 9867 2c3d ca10 613c
00000120: fd1e 9dbc b356 043c 3c86 d5bc 7a23 e4bc
00000130: d068 e3ba 8ffd dfbc 49dc 1bbc 31db b33c
00000140: 51f5 33bd f468 1cbd 9e56 5b3b b947 d93c
00000150: a8c3 2b3c fc4d d73c c7a4 e1bb 4d56 24bc
00000160: 4e73 b8bc 2fba 15bd 9c28 67bc 8257 92bc
00000170: 5d61 413c ec89 a8bc 2f1f 093d 5102 613c
00000180: affd 643d d70c af3d 43dc e73d 483a 993d
00000190: 4bec 963d 3dc7 3b3d 11e9 043d 34a8 cabb
000001a0: 2432 213c c9b9 5fbd d9f2 73bd d7f4 99b9
000001b0: 0b17 36bd 70ab bc3a 76a6 e3bc c161 a9bb
000001c0: 3d09 fabc 071d d3bb 79a6 2cbd 2e28 a7bc
000001d0: 1cb4 0abc a80f fdb9 5c46 f03c ca58 af3b
000001e0: 0d96 193d 5a8b 7ebb de81 273c 02ed b43d
000001f0: cd46 5c3d 7f47 0a3e 5b11 023e ae69 203e
00000200: c749 d13d d7f7 853d 3c38 9c3d a57a 0e3d
00000210: 5e33 25bb ac9d 26bd 32d1 77bd adff 24bd
00000220: c06c 88bc 5cc9 feb9 9e3a 5cbb 6a12 1fbd
00000230: 15b4 09bd d8b2 603c 79b6 a83c f93f 21bd
00000240: afc1 483c b3c2 0ebd 9f7d 22bc 8449 ee3b
00000250: 3080 d13c 2483 cdbc a09e b43c d096 443d
00000260: 9387 8b3c 5825 043e 30c8 063e 8b5f f63d
00000270: 1c5d 123e 4796 ad3d b1b9 a33d e4c0 4c3d
00000280: c277 15bc ff8d 6abc 9b77 c23c 3862 97bd
00000290: 94f1 98bc d706 e6bc dfc1 103c fd6c b73c
000002a0: 3fd2 26bd af88 06b9 795d 10bd 3732 38bb
000002b0: c5f2 183b 560b 36bc 0048 483c 696f acbc
000002c0: fc47 c5bc 62b8 76bc 2b95 ce3b a2f0 0c3d
000002d0: 8791 ae3c e474 1d3e aede eb3d 2936 343e
000002e0: e7ac 143e 5a95 c03d 2e2d ea3d 584a 833d
000002f0: ab3d f13c 4934 813d 4fdf a33c c19a d5bc
00000300: 429e 37bd 3ccb 3a3b 5f48 6abc 8749 c5bc
00000310: a684 c3bb b0a2 13bd e1af 17bd 8238 dcbc
00000320: 4733 10bd 9437 0ebd f607 ebbc 067b 0fbd
00000330: 3105 9aba 6d99 eeba 7c72 5cbc 8e67 d7bc
00000340: 9d88 6f3c f012 8b3d 7969 b83d a948 f93d
00000350: f371 0f3e 6944 053e 7534 1a3e 9bcc d13d
00000360: dff5 c53d cda9 c93d 514d 073d b81f c3bc
00000370: 53ab 38bc c311 093b 00c0 aabc bf2e c53c
00000380: 99ec ae3c 8aa2 8ebc c926 be3c f7b0 17bd
00000390: 00a1 813c 3e51 1d3c 8d9e 8dbc 5b5b 703c
000003a0: 54a1 5fbc 651f 03bd c315 8cbc e594 a1bc
000003b0: c6c1 21bb 88ae 20bd c588 993c d3f0 9a3d
000003c0: 53f1 0a3e a1fe fb3d 5ee4 193e ba05 b13d
000003d0: 5e7e a73d 7578 853d 04dc 073e 8214 af3d
000003e0: 1cda 9bbc 414b 03bd 2cf7 2cbd 78cd c43c
000003f0: 266e b33c ac7b ba3c 21cc 58bc 4396 b53b
-0.032433536 -0.014347579 0.0048455345 0.0022876132 -0.040939853 -0.0131982025 -0.0152254645 0.023760552
-0.031485274 -0.008333633 0.02284743 0.026973026 -0.015252203 -0.032787036 -0.025121022 0.009371226
-0.015289297 -0.018323192 -0.035800915 -0.02219884 -0.039846495 -0.00042527256 -0.028894445 -0.03940254
-0.03884327 -0.008864971 0.02580745 0.01475227 -0.027304789 -0.0016252357 0.009745327 0.011788197
-0.030682782 -0.03672304 -0.020616546 0.0008393409 -0.040712994 -0.021593634 -0.002245613 0.026058963
-0.010352056 0.018427107 -0.0157277 0.0006848438 -0.009564449 -0.038120396 -0.040294733 -0.008482859
-0.031394362 -0.007990157 0.011326753 -0.012740331 0.0063872635 -0.00025936958 -0.04313618 -0.0016797357
-0.019378679 0.02640871 0.0086694285 0.021532118 -0.030555503 -0.03757645 0.023195153 0.014163902
-0.04113023 -0.031245036 0.011781348 -0.020789903 0.016283862 -0.0075439652 0.042090982 0.013736913
-0.019179815 0.008077311 -0.026064985 -0.027848948 -0.0017349962 -0.027342586 -0.009512969 0.021955105
-0.043935124 -0.03818603 0.0033468376 0.026523458 0.01048366 0.026282303 -0.006886098 -0.010030341
-0.022515919 -0.03655451 -0.014108803 -0.017863993 0.011802998 -0.020573579 0.033477005 0.013733462
0.055905994 0.08547371 0.113213085 0.074818194 0.07369288 0.045844305 0.032448832 -0.006184602
0.009838615 -0.054620538 -0.05955777 -0.00029364854 -0.04445557 0.0014394354 -0.027789336 -0.005169124
-0.030521983 -0.0064426693 -0.04215095 -0.020404901 -0.008465793 -0.00048267585 0.029330425 0.0053511607
0.037496615 -0.0038840384 0.010223834 0.08834268 0.05377846 0.13503836 0.12701933 0.15665314
0.1021915 0.06541412 0.07627913 0.03478493 -0.002520762 -0.04067771 -0.06050224 -0.040282894
-0.016653419 -0.0004859668 -0.0033604275 -0.03883592 -0.033619005 0.013714515 0.020594822 -0.03936765
0.012253209 -0.03485365 -0.009917646 0.0072719473 0.02557382 -0.025086947 0.022048295 0.04799539
0.01703242 0.1290487 0.13162303 0.12029942 0.14293331 0.08475929 0.07994402 0.049988642
-0.009122791 -0.014316081 0.023738673 -0.073917806 -0.01866988 -0.028079433 0.008835285 0.022390837
-0.04072785 -0.00012830154 -0.035245392 -0.0028106102 0.0023338061 -0.011111101 0.012224197 -0.021049218
-0.024082176 -0.015058609 0.0063044033 0.034409173 0.021309627 0.15376621 0.11517082 0.17598785
0.14519082 0.094034865 0.114343986 0.06410664 0.02944835 0.06308801 0.020003943 -0.026074769
-0.04482866 0.0028502485 -0.014299481 -0.024082912 -0.0059667407 -0.036043823 -0.037032966 -0.026882414
-0.035205152 -0.034720972 -0.02869032 -0.035029434 -0.0011750815 -0.0018203683 -0.01345503 -0.026294496
0.0146199735 0.067907214 0.09004492 0.12172062 0.14008312 0.13014378 0.15059073 0.102441035
0.09666037 0.0984684 0.03303272 -0.023818836 -0.011271316 0.0020915128 -0.020843506 0.024070142
0.021353053 -0.017411489 0.023211854 -0.037034 0.015823841 0.009601889 -0.017287517 0.014670218
-0.0136493035 -0.032012362 -0.01710022 -0.019724319 -0.0024682148 -0.039228946 0.018741975 0.07565465
0.1356862 0.12304426 0.15028521 0.086436704 0.081783995 0.06517116 0.13267523 0.085488334
-0.019024901 -0.03205419 -0.04222791 0.024023756 0.021903109 0.02276405 -0.013232262 0.0055415942

linear1.bias f4 [128]
00000000: 8456 8b3b 8d8c 24bc f966 3bbc 0e22 0b3d
00000010: c9a7 b3bc f557 743c 0feb a23c 805b 6ebc
00000020: 88ea 8a3c 83db 4c3c 79ea 623c 4e5b 3abb
00000030: 5811 b33c 146a 05bd 0c04 413c a594 ecbc
00000040: 536e 45bc dcf4 b8bb 86d7 efbc 30ef 283b
00000050: 51e4 0a3c 1b54 fa3c 02fd 013d 86eb 7abc
00000060: 2082 273c 0fcb 9bbb a146 b4bc 92f5 ee3c
00000070: bf78 a73c 1009 08bb 92a2 fb39 276d d1ba
00000080: 7efd a9bb c76c f8bc 6ba6 a83c 08e8 babc
00000090: 388d d43c 9929 a33c 2a40 10bd c7ed e23c
000000a0: 7736 7c3c 44f0 ec3c 5ff4 923b 6968 0d3d
000000b0: 436f 0e3c ffea 993c 0e96 b83c aa02 b23c
000000c0: 25b1 cabc 1948 09bd 8638 933c c82f 073d
000000d0: 98ea 973c 3f2d 79bc a878 de3c 9983 023d
000000e0: 1798 be3c bbe2 943b b76e 9c3c d7dd cabc
000000f0: 2d02 643c 908a 8f3b 01f9 fbbc 6d01 79bc
00000100: fc42 bd3c 85d8 05bd 69a9 1a3d 7d9b 15bd
00000110: 0332 ba3c b239 6c3c 07f4 a93c 5094 de3c
00000120: bc68 863c f463 d2bb 8fc7 a6ba 36cc 8abc
00000130: 500b 1ebc 0b69 be3c 96d7 5b3b a207 113c
00000140: 6f41 633b 1593 08bd 9ce3 dbbb a868 d3bc
00000150: bd17 a8bc 78f6 8f3c 3b7d 593a 223c 36bd
00000160: d111 8e3c 86ca bebc b45c a6bc f7be d6bb
00000170: 8d6f e53c 216c db3c 3f01 f83c a0cb f3bb
00000180: 6993 d8bc a44e aabb 8d76 853b 5e76 433c
00000190: 6ffd 423b 08f4 d63c 906d a93c 2480 efbc
000001a0: 4451 08bc f1ae 39bc 9f54 1e3d c51c ca3a
000001b0: 13e8 b23c 8f5a c73c c044 c83c dac0 27bd
000001c0: 9a75 883c 20e4 02bd 3a4e 7e3c 1c1e 0d3d
000001d0: d788 e2bc a926 013d f1bc 71bc 23a9 b3bc
000001e0: 55ff 0cbd 52c9 d7bc 3aa0 11bd 79f2 bb3c
000001f0: 5a0d e7bc 88e2 56bc 5290 a03a 104e f4bb
0.004252257 -0.010043276 -0.011438125 0.033968024 -0.021930592 0.014913549 0.019887475 -0.0145481825
0.016957536 0.012503508 0.013849848 -0.002843577 0.021858856 -0.032571867 0.01178075 -0.028879473
-0.012050229 -0.005644424 -0.029277574 0.0025777332 0.008477286 0.030557683 0.031735428 -0.015314942
0.010223895 -0.004754431 -0.022006335 0.029169831 0.020443318 -0.0020757355 0.00047995575 -0.0015977965
-0.0051876893 -0.030325307 0.020587167 -0.02281572 0.025946245 0.019917296 -0.03521744 0.027701272
0.015393845 0.028923161 0.0044846977 0.0345234 0.008693519 0.018788813 0.02253249 0.021729786
-0.024742672 -0.033516023 0.017971288 0.033004552 0.01854448 -0.015208541 0.027157143 0.031863783
0.023265881 0.00454363 0.019095762 -0.024763985 0.013916534 0.0043805316 -0.030758383 -0.015198094
0.02310323 -0.032677192 0.03775922 -0.03652524 0.022728926 0.0144180525 0.020746244 0.02717033
0.016407363 -0.0064206067 -0.0012724268 -0.016943078 -0.009646252 0.023243448 0.0033545247 0.008851917
0.0034676453 -0.033343393 -0.0067104828 -0.02580674 -0.020519132 0.01757358 0.0008296554 -0.04449094
0.01734248 -0.02328993 -0.020307876 -0.0065535265 0.028007293 0.026784958 0.030274032 -0.0074400455
-0.026437478 -0.005197363 0.0040729702 0.011930076 0.002975311 0.02623941 0.020682126 -0.029235907
-0.0083201565 -0.011333213 0.03865492 0.0015419951 0.021839177 0.024335174 0.024446845 -0.040955402
0.01665764 -0.03195584 0.01552158 0.034452543 -0.027653141 0.03153101 -0.01475452 -0.021931237
-0.03442319 -0.026341114 -0.035553195 0.022942768 -0.028204609 -0.013115533 0.0012250042 -0.007455595

linear2.weight f4 [64, 128]
00000000: 06ea db3c 735d 1a3d 50a2 923d 1b6b 93bc
00000010: e41f 5c3d dee7 343d 44d7 8dbd 1ec0 793d
00000020: 1600 03be 9c44 2eb9 b8e0 cc3c a167 b2bc
00000030: 9a44 263d 6127 d1ba 9b4f 20bd abcd bd3c
00000040: 25a0 f63c 20ce ae3d 3ae6 f1bd 77ea a0bd
00000050: b9c2 15bd bf7c 72bc ed19 a23d 2983 18bc
00000060: 4888 2dbe ff35 64bc 5878 97bd 677b b83d
00000070: 00c7 a3bd 8f8a a63c c7e5 aa3d 271e 16be
00000080: c710 863d 0d3f 673c 929f 6a3d c82e 07be
00000090: 0007 0bbe e06f a73b e6e3 dd3d d17a 673b
000000a0: bd60 13be 0812 3e3d 3d79 e33d 59c7 7a3d
000000b0: 7cf6 c1bd 681a d83d 8ac8 d3bd 9c11 063e
000000c0: 5420 933c 9113 663d 98fb d53c 2546 8ebd
000000d0: 57e0 f5bc 6181 b4bd 244e 7b3d c519 3fbd
000000e0: 0473 83bd 78f1 b13c a23a 82bd 9529 8d3d
000000f0: d131 dabd 93ac b1ba dc5a b8bd f1f1 a53d
00000100: 9683 fdbd 2e14 8ebc d9b3 b1bd 8bb0 bf3d
00000110: 37fa 043d b2ca 4b3e 5e90 8abd eef9 3c3e
00000120: 5ee3 013d 1374 a5bd 7506 0ebe 9b85 a93d
00000130: 94ef 98bb f0da d5bd 3806 e73d 98b9 83bd
00000140: 11fb f9ba 4d03 323d 5c67 c13d c50c 813d
00000150: 5a31 5c3c 2f26 023e 4206 5a3c 780b 073d
00000160: ab27 d3bd 52ac 24bc 1451 2fbe 9b44 533d
00000170: 6759 783d 0216 42be b4db d9bb dac8 52be
00000180: d8b5 92bd 6a92 b13d c636 c0bd 60c3 303e
00000190: 67b6 9b3c 5942 eb3d e0e2 8e3d ac98 5bbd
000001a0: 23e3 b23d 4561 d73a 5075 f3bd 06f5 9c3d
000001b0: a004 e23d c719 01bc e398 d2bd 17cc 033e
000001c0: d279 1e3e 119e 07bd 0a9c f1bd 1b49 413d
000001d0: 0c18 57be 02aa b43d f513 9bbd 0ac0 aebd
000001e0: 302a 01be 86a8 063e f9e5 d2bc 247f 823c
000001f0: 6cfa 8e3d 6b63 663d 6010 c7bd db96 54bd
00000200: 5c32 133d 904b 323e e1a8 323d 8e6e 9d3d
00000210: 1ae8 79bc 68c9 bebc 19a3 b9bb 6591 cd3d
00000220: 9a1e eb3d 8777 283d 767f c5bd 105e 98bd
00000230: a5b4 153e a269 a5bd deb8 10bd 619d 99bd
00000240: 1a60 433d 171f 48bd 2fbf 11be 42a4 c9bb
00000250: c885 773d 81bf 15bc 560d 033d fbf6 243e
00000260: 64ba 813e 60ae 4c3d 2976 463d e262 eb3d
00000270: eeab 433d 4e03 2c3c 095d 83bc aa80 78bd
00000280: 241c 013d da26 ae3d 219e 8e3d 83dd fdbd
00000290: 953c 123d 67ec ef3d 8648 03bd 4af6 2c3d
000002a0: 7fce 19bc de19 fc3b c458 82bd 0baa 02be
000002b0: e328 9dbd ca50 4fbd 4cb0 45bd 8d90 e9bd
000002c0: e2ed 01bd bc36 403d 9678 27bc cfa4 af3c
000002d0: b3bd 4c3c 9445 eebb 62ea bc3d 72ce 4d3d
000002e0: 2b35 27bd 6199 7abd ce39 8a3c 22ad 2fbc
000002f0: ed16 0e3d 2274 c4bb e999 163e 7257 8ebd
00000300: 207c a5bb 1c33 d1bd 343a 6a3d e680 373d
00000310: 36fd f13d cac1 cd3c a857 37bd 8bf5 4ebd
00000320: aaac 0a3e 83c6 d63d b276 2bbd 5aac fa3c
00000330: ede0 353e 34cd e6bd eb8b 3ebd fe3b 35be
00000340: 5207 033e fa54 d3bd f348 92bd 989d 0b3d
00000350: 1cc8 7a3c effe 2d3a 5fe9 9d3d 3753 363d
00000360: 570b 6abc 32c9 9e3c 1b1a 363e be17 1dbd
00000370: 366d 993c 49f3 ec3d 81de 87bb a0f7 02be
00000380: 128b 53bd c1bb 993d f785 273d b66d 29be
00000390: fc06 0f3d 1443 153d 48ba 9f3d f2c6 2d3e
000003a0: 0e16 30bd 6a0e 12be b5ec 17bc 6593 c8bd
000003b0: 27a3 a43d c184 133e e06f f8bb f7ec 9f3c
000003c0: 1ddb ffbd 5e10 51bb 23da 193d 971a cb3b
000003d0: 62c1 c0bc 87ae 98bc 20a6 47bd 44c0 1ebd
000003e0: 75a8 dabb 096d 563d f026 2e3d 80da 07bd
000003f0: 852f d83c 8370 25bc 4637 c5bd b9df 5fbc
0.02684499 0.037686776 0.07159865 -0.017995408 0.05374135 0.04416644 -0.06925824 0.060974233
-0.12793002 -0.00016619492 0.025009498 -0.02177793 0.040592767 -0.001595717 -0.039138418 0.02316936
0.03010566 0.08535409 -0.1181149 -0.078572206 -0.036562655 -0.01480025 0.07915101 -0.009308615
-0.16946518 -0.013928889 -0.073960006 0.09007912 -0.079969406 0.020329742 0.08344608 -0.1465994
0.06546169 0.014114154 0.057281084 -0.1320144 -0.13576889 0.005109772 0.10834484 0.0035321007
-0.14392371 0.046403915 0.11107109 0.06122527 -0.09470841 0.105519116 -0.10340984 0.13092655
0.017959751 0.056171004 0.026120946 -0.06946973 -0.0300142 -0.088137396 0.061353818 -0.046655435
-0.06418422 0.021721587 -0.063588396 0.06892697 -0.10654033 -0.001355546 -0.09001705 0.08102787
-0.12378614 -0.017343607 -0.08676881 0.09359845 0.032465186 0.19901541 -0.06765817 0.18454716
0.031710975 -0.0807878 -0.1386965 0.08277436 -0.004667232 -0.1044215 0.11280483 -0.064318836
-0.0019072016 0.04346018 0.09443542 0.06301264 0.013439501 0.12709878 0.013307156 0.03296992
-0.103103004 -0.01005085 -0.17120773 0.0515791 0.060632136 -0.18953708 -0.006648505 -0.20584431
-0.0716359 0.086705044 -0.09385447 0.1726203 0.019007875 0.11487264 0.06976867 -0.053612396
0.08734729 0.0016432187 -0.1188761 0.07663922 0.110360384 -0.007879681 -0.10283067 0.12870823
0.15476158 -0.03310973 -0.1179734 0.04718886 -0.21005267 0.08821489 -0.07572166 -0.08532722
-0.1261375 0.13150224 -0.025744425 0.015929766 0.06981358 0.056247156 -0.0971992 -0.05190168
0.0359367 0.17411637 0.043618087 0.07687102 -0.015253091 -0.023289397 -0.0056651947 0.100374974
0.11480446 0.041129615 -0.09643452 -0.07439816 0.14619692 -0.080767885 -0.035332553 -0.07500721
0.04769907 -0.048857775 -0.14233087 -0.0061536143 0.060430318 -0.009139896 0.03199514 0.1610984
0.25337517 0.049970984 0.04845253 0.1149347 0.047771387 0.010498835 -0.016035574 -0.06066958
0.031520978 0.08503504 0.069637544 -0.12395766 0.035702307 0.11715012 -0.032051586 0.042227067
-0.009387611 0.0076935133 -0.06364587 -0.12760179 -0.07673814 -0.050614156 -0.048263833 -0.11404524
-0.031721003 0.0469272 -0.010221621 0.021440892 0.0124964 -0.007271478 0.092243925 0.05024571
-0.04082219 -0.06118143 0.016873267 -0.01072243 0.034689832 -0.0059952894 0.1470715 -0.069502726
-0.0050501972 -0.102148265 0.057184413 0.04480066 0.11815874 0.02511682 -0.04476133 -0.050527137
0.13542429 0.10487082 -0.041861244 0.030599762 0.17761584 -0.11269608 -0.046520155 -0.17698666
0.12795761 -0.10318942 -0.0714282 0.03408584 0.015306499 0.00066374143 0.07710528 0.044512954
-0.01428493 0.019383047 0.17783396 -0.03835272 0.018728834 0.115698405 -0.0041463976 -0.12789774
-0.0516463 0.07506514 0.040899243 -0.16545758 0.03491877 0.036440924 0.07799202 0.16970423
-0.042989783 -0.14263311 -0.009272744 -0.09793738 0.08038931 0.1440611 -0.007581696 0.019522173
-0.124929644 -0.0031900625 0.037561547 0.006198238 -0.023529712 -0.018637909 -0.048742414 -0.038757578
-0.0066729137 0.052350078 0.042517602 -0.033167362 0.026389847 -0.010097626 -0.09629683 -0.0136641795

linear2.bias f4 [64]
00000000: 0af0 683d e8dd 373d 50b7 7a3d ffc1 913d
00000010: 263a ac38 7c90 cabd f37f 9e3d 5e93 ddbc
00000020: 866e d63d 445f 213d 61f9 943d 588d 62bc
00000030: b0f5 51bc 223a 1bbc 2d3f c43d fe8e 51bd
00000040: b49a 56bc d51b 4a3d 90ab 803d 92fc 52bd
00000050: 98e1 2cbd 9911 99bd 0fb4 593d 9f74 653d
00000060: 161b 113c 05e1 783c a6fa 8d3d 0eef 033d
00000070: e016 d8bc 7da9 8abd c7c1 613d 86f4 493c
00000080: 2d35 393d 9282 29bd 92af 65bd 2c08 4d3c
00000090: 47e7 59bd 5ae8 503d 6c03 d93d 0559 523d
000000a0: 8bf9 003d 8d26 7a3c 7d32 7ebc 928a a83d
000000b0: 70bb 9fbd 8401 b3bc 9d90 bb3d 068f 0abc
000000c0: 23b9 6ebb 3a68 37bd 81da d43d a110 0dbd
000000d0: ce97 f3bc ec5e 763d 11c5 a23d 8d14 cdbc
000000e0: 6ed7 d23d 6f6e 3c3c 70f1 a9bb ff76 02bd
000000f0: 8b2a 10bd b062 963d c6a1 6a3c 7a90 253b
0.056869544 0.04488936 0.061209977 0.0711708 8.21243e-05 -0.098908395 0.07739248 -0.02704781
0.104702994 0.039397493 0.07274128 -0.013827644 -0.012814924 -0.009474309 0.09582362 -0.05116176
-0.013098408 0.04934295 0.06282723 -0.0515104 -0.04220733 -0.074740596 0.053150233 0.05601942
0.008856555 0.015190368 0.06932573 0.032210402 -0.026378095 -0.067706086 0.05511644 0.012326365
0.045216728 -0.041384287 -0.05607564 0.012514155 -0.05319908 0.051002838 0.10596356 0.051354427
0.031487983 0.01526798 -0.015514967 0.08229555 -0.07799423 -0.021851309 0.09158442 -0.008456951
-0.0036426268 -0.044777133 0.10393239 -0.034439687 -0.029735472 0.06014912 0.07947744 -0.025034213
0.10294996 0.011500939 -0.0051862523 -0.031851765 -0.035196822 0.07343042 0.014320796 0.0025263117

linear3.weight f4 [10, 64]
00000000: 11da e63e 376b 0bbe cd93 92bd 77be 993d
00000010: 6c83 b53e 0cb1 babe c9ab f4bc 2595 c2bb
00000020: 926b 0bbe b537 b8be 6cf7 19bf b8b1 05be
00000030: 85f0 993d 3e32 353e 6064 4dbc 6f19 15be
00000040: 6933 1f3c f905 76bd 6335 9e3d cd4d aabe
00000050: 901d b53d 7cf3 32bd 36a7 093e fe57 c43e
00000060: 4d98 55be a0b9 1dbe bac0 66bd 6d43 e2be
00000070: e88a c7bd d0cb dc3d 20e7 f53e 9e9f 273e
00000080: 2d07 053f b630 903c ae5f 24be ea13 503c
00000090: 4f16 8a3d 9d8f f03d 846a a33e 76a5 bebe
000000a0: 2e4d e63d c53e 3d3d 49a2 343d 0f24 58be
000000b0: 6868 fe3e 0c98 ad3d 35f2 0fbd e4f9 b0be
000000c0: 7eb2 cd3d dd1a a0be d022 483c b8b2 69be
000000d0: a14d 6dbe ecb0 d63d 07cd 1b3e 2be4 21bd
000000e0: a6cc 673e 4c09 4cbe 365e 83bd 7504 27be
000000f0: 4e60 3b3b dcf3 9ebe 2d99 0cbe 5ba9 253e
00000100: 719a cdbb 7c33 783d 7e72 afbe 351e 26bd
00000110: 0de5 1dbe ac15 163f c9ee c3be 2e56 023e
00000120: 88d8 efbe cb36 cbbe 9cf0 32be 5e6c 623e
00000130: e2bb 193d 6635 e63c 5245 a5be 7a76 fcbd
00000140: 3e4f c73d 6bf5 b0bd d68e 6c3e 1932 c7bd
00000150: 7682 693e 762d 3a3d be7d aebd 65d8 c5bd
00000160: 1517 ba3e fae9 d53d ff61 a93e 6d19 693e
00000170: be16 f73d f34c 153e 1c6e fabd eabe 97bc
00000180: 1f20 56be 6672 983e 1404 85be c073 573e
00000190: cf06 f0bc 9d2c e8bd f512 b0be 13a6 5f3e
000001a0: 202d cebd 68c8 87bd 5ca6 fe3e 295c f73c
000001b0: f703 263d acda a33c e8a1 bf3e 6578 893d
000001c0: cb00 9abc 0a5a f4bd aee6 7bbe 1605 87be
000001d0: 7fda dbbe ab77 9cbd 74f3 61be 4ae2 a03d
000001e0: 5cd8 07bf 92d5 c83e 5f0c 773e 94dd 3bbe
000001f0: 6b5c af3d 7db3 c73e 19d1 d2bb 97e2 be3d
00000200: 3d6a 61bd 4fd1 6fbc 3001 20be 5ef4 513e
00000210: c578 7fbd ccef d93e fdd1 2e3e 28ae d8bd
00000220: 4d67 0e3f c03f d43d 89d9 a6bc 88ed 493e
00000230: 9642 143e f537 4fbd 42e6 a13d fbc5 f9bc
00000240: 0595 5b3e 9b6c 213d efca de3d d885 083f
00000250: 3d13 d7bd 0856 34be 9982 a3bd 7789 a9bd
00000260: 3395 ccbe 30a8 e4bd d60c 93be 13df 3dbe
00000270: 7b89 803e 083d 6a3e ee9d 8fbd d155 07be
00000280: 429d 083e 01f7 cf3d 821a 30be 2d04 353e
00000290: 90f9 a83e f55f ae3e cc03 ffbd 14be dfbc
000002a0: 2ef7 b13d 5ce3 babd bcd6 fdbc b2c9 0a3e
000002b0: a69e 673e b327 f23d 02b9 63bd 40c5 85be
000002c0: 34b3 25be 0e02 1a3d 81e3 4abd e710 96bc
000002d0: fc85 a73e 7704 24bd 34ba 003b e20f 11bd
000002e0: 9004 cd3c a25b 6ebe 97f6 2e3e 8856 583e
000002f0: c7df 66be 4d4a 423e bd72 e3bd 2eaf b2bd
00000300: 217e 553e b806 56be d7c3 aabc ca97 a33e
00000310: d270 d5bd 465c a83c 7814 1cbe 3f7e bb3e
00000320: 247b afbe 81cb a83e 2cb4 8d3e 6c97 e03e
00000330: 43a4 b4bd 254e b9be 6e9c 3c3e c2fd 413e
00000340: 45a6 4f3b 0de4 2a3e dce6 143e 7d63 6b3d
00000350: d88d 733d f68c d73c c54c b33e a9cc 213e
00000360: cad1 cebe 7efe b03d a126 c13e d534 033f
00000370: cf88 9dbe d35d dfbd 1635 da3d 2cc3 55be
00000380: c2a6 9fbe 42c2 a9bd 929a a83d 7798 55be
00000390: 1998 eebd 6c01 2d3d 06df 453d 1c83 583b
000003a0: 6247 15bd cc26 f63e 6639 8abe 21db 8ebe
000003b0: e0ef 18bf a6ec 3f3d a85a acbe a9d0 8fbe
000003c0: 2e8d 783e a57a 32be 70b6 04bf 7541 463e
000003d0: 6c10 10be a5ba e73c b81e b53e 97d3 acbc
000003e0: c52a 4ebe 4451 af3d 7779 253e 1120 52be
000003f0: 5def 70be e082 873e be23 f43d 4306 e2bd
0.45088246 -0.13615118 -0.07157097 0.075070314 0.3545183 -0.364632 -0.02986707 -0.0059381896
-0.13615254 -0.3598 -0.6014316 -0.13056076 0.075165786 0.17694947 -0.012536138 -0.14560483
0.009716847 -0.06006429 0.077250265 -0.33262482 0.08843529 -0.043689236 0.13442692 0.38348383
-0.2085888 -0.15402842 -0.056336142 -0.44192067 -0.09743291 0.10781062 0.48027897 0.16369483
0.51964074 0.017601352 -0.16052124 0.01270006 0.06742536 0.11746142 0.31917202 -0.37235612
0.112451896 0.04620244 0.04410008 -0.21107505 0.4968903 0.08476266 -0.035143096 -0.3456565
0.1004381 -0.31270495 0.012215331 -0.22822082 -0.23174144 0.10482964 0.1521493 -0.03952424
0.22636661 -0.19925421 -0.06414454 -0.16310294 0.0028591338 -0.31045425 -0.13730307 0.16177885
-0.0062745144 0.060595974 -0.34267038 -0.04055615 -0.15419407 0.5862682 -0.38268116 0.12728187
-0.46844888 -0.3969024 -0.17474598 0.22111651 0.037532695 0.028101634 -0.3227945 -0.12327285
0.09731911 -0.0864056 0.23101363 -0.09726352 0.22803673 0.04545351 -0.08520077 -0.096604146
0.36345735 0.10445018 0.33082578 0.22763605 0.120648846 0.14580135 -0.12228033 -0.018523652
-0.2091069 0.2977478 -0.25979674 0.21040249 -0.029300122 -0.11336634 -0.34389463 0.21840696
-0.10067201 -0.06630021 0.49736297 0.030195313 0.040531125 0.020001732 0.37428212 0.067124166
-0.018799206 -0.11931236 -0.24599716 -0.26371068 -0.42940137 -0.07640012 -0.22065526 0.07855661
-0.53064513 0.3922544 0.24125813 -0.18346244 0.08562549 0.39004126 -0.006433618 0.09320562
-0.055032957 -0.014637305 -0.15625453 0.20503375 -0.062371034 0.42565763 0.17072292 -0.10580093
0.55626374 0.10363722 -0.0203674 0.19719517 0.14478526 -0.050590474 0.07905246 -0.030489912
0.21443565 0.039410215 0.1087855 0.5332923 -0.10501716 -0.17610943 -0.07983894 -0.082781725
-0.3995758 -0.11164892 -0.2872073 -0.18542127 0.2510489 0.22874844 -0.070125446 -0.1321633
0.13341239 0.10154534 -0.17197612 0.17677374 0.330029 0.34057584 -0.12451896 -0.027312316
0.08689724 -0.091253966 -0.030986182 0.13553503 0.22619113 0.11823978 -0.05559636 -0.26127052
-0.16181642 0.037599616 -0.04953337 -0.018318607 0.3271941 -0.04004332 0.0019642236 -0.035415538
0.02502659 -0.23277143 0.17086254 0.21126759 -0.22546302 0.18973656 -0.11105869 -0.08724819
0.20848896 -0.20901 -0.020845337 0.31951743 -0.104219094 0.020551812 -0.15242183 0.36619756
-0.34273636 0.3296776 0.27676523 0.43865526 -0.08820393 -0.36192432 0.18419048 0.18944457
0.0031684798 0.16688557 0.14541191 0.057467926 0.059461445 0.026312333 0.35019508 0.15800728
-0.4039443 0.086422905 0.37724784 0.5125249 -0.3076844 -0.109065674 0.106546566 -0.20875233
-0.31181914 -0.08289005 0.08232607 -0.20858942 -0.11650104 0.042237684 0.048308395 0.0033037132
-0.03644503 0.48076475 -0.26996917 -0.27901557 -0.5974102 0.046856545 -0.33662915 -0.28088883
0.24272606 -0.17429598 -0.5184088 0.19360907 -0.14068764 0.028287241 0.35375 -0.021096988
-0.20133503 0.08560422 0.16159616 -0.20520045 -0.2352881 0.26467037 0.1192088 -0.110363506

linear3.bias f4 [10]
00000000: b05b e3bc a79d 1dbe fbc1 0a3d a9fb 5d3d
00000010: f787 b43d 673a 07be d69e 2a3c 5029 393d
00000020: 73da 4e3e e79f 88bd
-0.027753681 -0.15392171 0.0338764 0.05419508 0.08814996 -0.13205872 0.010413846 0.045205414
0.2020052 -0.06671124
