my_mnist_model.pt (torch, 440513 bytes, 6 tensors)

weight f4 [128, 784]
-0.03318203 -0.015096103 0.004096999 0.0015390778 -0.041688338 -0.013946726 -0.01597405 0.023011968
-0.032233782 -0.009082153 0.022098847 0.026224442 -0.015999384 -0.033504955 -0.02583903 0.008623982
-0.016037887 -0.019071776 -0.0365494 -0.022947423 -0.04059498 -0.0011738029 -0.029643029 -0.040151026
-0.039591756 -0.009613493 0.025058866 0.0140037425 -0.028053373 -0.0023737694 0.008996803 0.011039673
-0.03143131 -0.037471525 -0.02136513 9.080921e-05 -0.04146148 -0.022337424 -0.002980857 0.02533917
-0.011079467 0.01776248 -0.016529676 0.00020720034 -0.009048023 -0.03837684 -0.041160926 -0.009307216
-0.03215271 -0.008738671 0.010578229 -0.013488854 0.0056387307 -0.0010079014 -0.043884665 -0.0024282685
-0.020127263 0.025660126 0.007920901 0.020782325 -0.031304058 -0.038324922 0.022447674 0.01341709
-0.041874032 -0.03196302 0.011374192 -0.020648073 0.01976188 -0.0025592926 0.046319783 0.015995327
-0.018131413 0.007855986 -0.026997836 -0.02970016 -0.0016784464 -0.027587049 -0.01028171 0.02118554
-0.044685967 -0.038934514 0.0025983043 0.025774874 0.009735136 0.025533719 -0.00745155 -0.010753904
-0.023547677 -0.037441574 -0.014838265 -0.01848438 0.011460223 -0.019937946 0.035324026 0.015545199
0.06356734 0.09263824 0.11761162 0.07239126 0.07762587 0.04720584 0.026603602 -0.013983199
0.008458329 -0.055185065 -0.060132194 -0.000632621 -0.0443926 0.0016836138 -0.028476253 -0.005917656
-0.03127052 -0.0071912077 -0.04227035 -0.02104229 -0.009533521 -0.0017888496 0.028425587 0.0055134846
0.03790102 -0.0029948393 0.009644755 0.091779895 0.06270548 0.14030449 0.12436023 0.15735552
0.10642496 0.074886136 0.077630945 0.028588759 -0.006478321 -0.04852457 -0.059457235 -0.044399682
-0.021901011 -0.00438075 -0.004500458 -0.040053587 -0.03436749 0.012965991 0.019922532 -0.040546324
0.0108055435 -0.036037307 -0.011130153 0.006965278 0.025434492 -0.025331225 0.017740691 0.0451791
0.018652698 0.13368721 0.13604216 0.12243028 0.15203178 0.08739655 0.08215273 0.04970838
-0.01573021 -0.013532098 0.032573577 -0.0758987 -0.02474461 -0.030300945 0.0063726227 0.020900652
-0.041476335 -0.00087206403 -0.0359497 -0.0043626474 0.00035229314 -0.011570677 0.010784702 -0.022487318
-0.028253853 -0.01709929 0.0122589385 0.03616939 0.026094602 0.16734597 0.12620528 0.1841409
0.14185314 0.09359933 0.11625558 0.067325816 0.030158482 0.070764884 0.024791874 -0.028960405
-0.053341657 0.0021918414 -0.01587874 -0.02528522 -0.0067152735 -0.036678925 -0.037487965 -0.028049123
-0.037773516 -0.03750337 -0.028849795 -0.033367157 -0.0006361711 -0.0028196014 -0.005612929 -0.010816125
0.024454853 0.07921823 0.08399335 0.12872754 0.1480328 0.13376287 0.1630276 0.11176283
0.10344499 0.101259515 0.03278045 -0.028549844 -0.011535198 0.00527977 -0.021712821 0.023105696
0.020857435 -0.018148864 0.022286845 -0.03891781 0.0124099245 0.006126206 -0.018544614 0.016186237
-0.017161235 -0.03089319 -0.011803742 -0.01142903 0.004455112 -0.04350391 0.015475629 0.06872822
0.13523906 0.12156293 0.15236595 0.08819168 0.094552815 0.064098924 0.13931406 0.09193583
-0.023289027 -0.03418157 -0.042968094 0.023215523 0.021154525 0.022017965 -0.014095534 0.003377895
00000000: e1e9 07bd a555 77bc 1e40 863b e2ba c93a
00000010: 64c1 2abd cf80 64bc 03dc 82bc 9883 bc3c
00000020: 9207 04bd 50cd 14bc a408 b53c a4d4 d63c
00000030: 2411 83bc 7e3c 09bd 60ac d3bc 9a4b 0d3c
00000040: e361 83bc 6a3c 9cbc d3b4 15bd 3cfc bbbc
00000050: ec46 26bd 4ada 99ba f0d5 f2bc 6775 24bd
00000060: f72a 22bd ea81 1dbc 4048 cd3c f46f 653c
00000070: 30d0 e5bc 3e91 1bbb 5467 133c bfdf 343c
00000080: 1ebe 00bd be7b 19bd ed05 afbc d370 be38
00000090: 83d3 29bd f9fc b6bc 7b5a 43bb 1794 cf3c
000000a0: a786 35bc 9f82 913c 3e69 87bc eb43 5939
000000b0: 293e 14bc 0931 1dbd 5c98 28bd 4b7d 18bc
000000c0: 8fb2 03bd a52c 0fbc 4f50 2d3c 5b00 5dbc
000000d0: 1ac5 b83b 8f1b 84ba 68c0 33bd 9623 1fbb
000000e0: eee1 a4bc 2f35 d23c abc6 013c b23f aa3c
000000f0: af38 00bd 98fa 1cbd 2fe4 b73c 5bd3 5b3c
00000100: 1b84 2bbd a8eb 02bd d25a 3a3c 2626 a9bc
00000110: abe3 a13c ceb9 27bb d0b9 3d3d a208 833c
00000120: 5488 94bc 65b6 003c 912a ddbc c04d f3bc
00000130: 51ff dbba 3cfe e1bc 9e74 28bc 4c8d ad3c
00000140: a208 37bd cc79 1fbd 5048 2a3b d425 d33c
00000150: 1f80 1f3c 172c d13c 222c f4bb 2431 30bc
00000160: 0fe7 c0bc 565c 19bd 321c 73bc 8e6c 97bc
00000170: a9c3 3b3c e754 a3bc edaf 103d 4ab1 7e3c
00000180: 982f 823d 1eb9 bd3d 5cde f03d de41 943d
00000190: 50fa 9e3d e95a 413d ccef d93c ca19 65bc
000001a0: ce94 0a3c bc09 62bd 2d4d 76bd 7ad6 25ba
000001b0: 04d5 35bd b4ac dc3a 0847 e9bc e5e8 c1bb
000001c0: 8415 00bd 39a4 ebbb ad23 2dbd e160 acbc
000001d0: 7c32 1cbc d577 eaba c7dc e83c 76aa b43b
000001e0: 1a3e 1b3d 1145 44bb 0905 1e3c 19f7 bb3d
000001f0: bb6b 803d fbab 0f3e 94b0 fe3d ce21 213e
00000200: 54f5 d93d e75d 993d f9fc 9e3d f932 ea3c
00000210: 1848 d4bb b3c1 46bd 6e89 73bd 71dc 35bd
00000220: c069 b3bc 658c 8fbb 9478 93bb 3b0f 24bd
00000230: edc4 0cbd 4f6f 543c 9434 a33c e713 26bd
00000240: bc09 313c db9b 13bd 3f5b 36bc fd3c e43b
00000250: ff5b d03c 6e83 cfbc ed54 913c b80d 393d
00000260: 8bcd 983c 4de5 083e a34e 0b3e babc fa3d
00000270: 38ae 1b3e f6fc b23d b13f a83d 049b 4b3d
00000280: a4dc 80bc bcb5 5dbc df6b 053d c770 9bbd
00000290: 35b5 cabc b039 f8bc 6fd1 d03b d837 ab3c
000002a0: 17e3 29bd 3a9b 64ba fe3f 13bd 8af4 8ebb
000002b0: fcb3 b839 f092 3dbc 52b2 303c 5337 b8bc
000002c0: a074 e7bc cf13 8cbc b7d9 483c 5b26 143d
000002d0: 59c4 d53c be5c 2b3e f53b 013e 6f8f 3c3e
000002e0: f341 113e 01b1 bf3d 6817 ee3d 1ee2 893d
000002f0: ec0e f73c 2eed 903d 5418 cb3c 5f3e edbc
00000300: c87c 5abd ffa4 0f3b 2214 82bc f322 cfbc
00000310: cc0b dcbb a43c 16bd fb8c 19bd 46c7 e5bc
00000320: 67b8 1abd 229d 19bd 6856 ecbc 00ac 08bd
00000330: b8c4 26ba 10c9 38bb a9ec b7bb 1e36 31bc
00000340: 8b55 c83c 2b3d a23d b504 ac3d 27d1 033e
00000350: e995 173e 22f9 083e b5f0 263e e9e3 e43d
00000360: f8da d33d 2661 cf3d cb44 063d 5de1 e9bc
00000370: 21fe 3cbc ec01 ad3b 16df b1bc 2848 bd3c
00000380: 36dd aa3c edac 94bc e792 b63c 4868 1fbd
00000390: ff52 4b3c 57be c83b e0ea 97bc 0099 843c
000003a0: b895 8cbc b713 fdbc 7b64 41bc d440 3bbc
000003b0: 30fc 913b 2831 32bd 7e8d 7d3c 62c1 8c3d
000003c0: 1c7c 0a3e fcf5 f83d d205 1c3e d79d b43d
000003d0: e8a4 c13d 4c46 833d 58a8 0e3e da48 bc3d
000003e0: a1c8 bebc f901 0cbd 50ff 2fbd 7b2e be3c
000003f0: 414c ad3c 055f b43c f4f0 66bc ad5f 5d3b

bias f4 [128]
0.005000789 -0.0096517345 -0.011437485 0.033166867 -0.0221081 0.015534506 0.019743428 -0.014856385
0.017402906 0.0124736875 0.013387204 -0.0031923878 0.022521315 -0.032570787 0.012291285 -0.028713508
-0.012050229 -0.0063756485 -0.028707307 0.0025126631 0.008720245 0.03131854 0.031379543 -0.015133117
0.009756103 -0.005271978 -0.022426859 0.028895872 0.021229105 -0.0014900046 0.0009105033 -0.002183588
-0.0044053285 -0.030266127 0.020642998 -0.023175761 0.025452597 0.018467726 -0.035039194 0.027107516
0.014834964 0.02826417 0.0048925444 0.03456149 0.008107374 0.01925759 0.022118248 0.022236131
-0.025440196 -0.033423226 0.0166748 0.033033013 0.018636258 -0.014781293 0.027853748 0.031767417
0.023103135 0.0031866808 0.018186957 -0.02507729 0.012670991 0.0053733117 -0.03201864 -0.014859203
0.022867016 -0.031589877 0.037376944 -0.035633627 0.022419538 0.014409451 0.020167764 0.027169416
0.017599257 -0.0069433427 -0.0010111941 -0.017060079 -0.0104755955 0.02263167 0.0039661615 0.009194147
0.0037021267 -0.03364804 -0.007577281 -0.025212342 -0.020174442 0.017925957 -0.00077552913 -0.045320082
0.016963113 -0.023039263 -0.021825654 -0.008083692 0.028034693 0.027255766 0.030144695 -0.008666778
-0.026726013 -0.0056253877 0.0034729224 0.011458853 0.0029989022 0.026090771 0.021445023 -0.029984802
-0.008063971 -0.010448562 0.037964825 0.001577363 0.021222288 0.024407227 0.025137858 -0.04207186
0.016352156 -0.03308441 0.014396474 0.035366897 -0.02661238 0.030796709 -0.014038975 -0.021929065
-0.035071094 -0.025511933 -0.035561886 0.022268565 -0.029071053 -0.012647481 0.0009491832 -0.0074563674
00000000: a9dd a33b 4f22 1ebc 4a64 3bbc fbd9 073d
00000010: 0c1c b5bc 7184 7e3c f8bc a13c 3268 73bc
00000020: 8a90 8e3c 705e 4c3c 0156 5b3c 6137 51bb
00000030: 9f7e b83c f268 05bd 6361 493c 9738 ebbc
00000040: 536e 45bc d1ea d0bb 962b ebbc 7eab 243b
00000050: 5cdf 0e3c df47 003d d687 003d e5f0 77bc
00000060: 10d8 1f3c 8fc0 acbb 88b8 b7bc 09b7 ec3c
00000070: a9e8 ad3c 424c c3ba d8ae 6e3a 871a 0fbb
00000080: 935a 90bb abf0 f7bc 811b a93c 18db bdbc
00000090: f781 d03c a149 973c 4285 0fbd 9510 de3c
000000a0: 590e 733c 438a e73c a351 a03b 5990 0d3d
000000b0: cbd4 043c 18c2 9d3c 5431 b53c 8c28 b63c
000000c0: f567 d0bc cbe6 08bd 9799 883c a04d 073d
000000d0: 11ab 983c 3d2d 72bc 8b2d e43c 8d1e 023d
000000e0: c942 bd3c a2d7 503b d0fc 943c e46e cdbc
000000f0: fd99 4f3c 9b12 b03b fa25 03bd 0474 73bc
00000100: 9c53 bb3c 6364 01bd 9118 193d 91f4 11bd
00000110: 2ea9 b73c 9e15 6c3c de36 a53c 6592 de3c
00000120: 512c 903c fb84 e3bb 0b8a 84ba 94c1 8bbc
00000130: d5a1 2bbc 0d66 b93c 93f6 813b 0ca3 163c
00000140: 619f 723b 87d2 09bd d74a f8bb 1d8a cebc
00000150: df44 a5bc 75d9 923c e14c 4bba 8da1 39bd
00000160: 3af6 8a3c d6bc bcbc b7cb b2bc 7671 04bc
00000170: 03a9 e53c 7c47 df3c 02f2 f63c 1aff 0dbc
00000180: 83f0 dabc 2c55 b8bb f899 633b eabd 3b3c
00000190: 3b89 443b 50bc d53c 79ad af3c b0a2 f5bc
000001a0: bf1e 04bc 7230 2bbc 0181 1b3d 85bf ce3a
000001b0: 5dda ad3c aaf1 c73c e9ed cd3c 8b53 2cbd
000001c0: f5f4 853c 8583 07bd 30df 6b3c e1dc 103d
000001d0: 3502 dabc 6149 fc3c bb03 66bc 95a4 b3bc
000001e0: b5a6 0fbd 67fe d0bc 57a9 11bd 916c b63c
000001f0: 6b26 eebc 6137 4fbc 9bd2 783a 8b54 f4bb

weight f4 [64, 128]
0.02679966 0.03541187 0.071598716 -0.017133197 0.05489242 0.0439888 -0.07028351 0.0516092
-0.13687536 -0.0007058785 0.022948645 -0.01297981 0.04837463 -0.0015946304 -0.047375932 0.027727485
0.03010566 0.091225825 -0.11900313 -0.09448886 -0.02621519 -0.020194484 0.08236283 -0.0036757078
-0.1890644 -0.013058768 -0.07340354 0.086618096 -0.085764214 0.02305266 0.08353476 -0.14394096
0.060868055 0.01435443 0.051692087 -0.12861653 -0.14072622 0.020448415 0.10701984 -0.00020130222
-0.14525774 0.052993678 0.119778074 0.062396582 -0.09228982 0.11544119 -0.102482 0.1385205
0.018387148 0.05643629 0.024032801 -0.06896094 -0.029767666 -0.08839261 0.07182541 -0.053035315
-0.068186395 0.017670436 -0.07095928 0.06889227 -0.10502593 -0.0026838866 -0.08966707 0.07254717
-0.1231349 -0.015607556 -0.08159846 0.097945206 0.032940604 0.20226486 -0.07295691 0.18629697
0.03761391 -0.0881805 -0.15003027 0.09084824 -0.0153240785 -0.11250869 0.12877513 -0.07004399
-0.0023895865 0.04052086 0.09504135 0.06420497 0.013455207 0.14138453 0.011870565 0.037899803
-0.117199905 -0.01246272 -0.17188098 0.05249137 0.060637042 -0.2096037 -0.009526246 -0.21346174
-0.07302852 0.0924863 -0.097085595 0.17401338 0.018475465 0.1367103 0.076391116 -0.045724943
0.083471745 -0.0048091807 -0.11765527 0.0836779 0.1197161 -0.009500678 -0.11915161 0.1262012
0.16348496 -0.042634673 -0.115294956 0.03789749 -0.21299557 0.0935161 -0.07048449 -0.08532673
-0.12980293 0.13005252 -0.02575379 0.024167264 0.072864525 0.0722666 -0.08870555 -0.05190168
0.04965506 0.17699866 0.043618083 0.07614816 -0.013042298 -0.023021754 -0.0062912214 0.10699576
0.11617527 0.03696887 -0.09800344 -0.074830994 0.1537292 -0.08077014 -0.03467721 -0.083931565
0.04769907 -0.042809803 -0.15272091 -0.0009874966 0.061459985 -0.01481597 0.021984287 0.15619175
0.26719362 0.04213409 0.049051233 0.11660745 0.059438467 0.013982813 -0.016615665 -0.06665481
0.028630812 0.08551863 0.069509745 -0.12472329 0.03357379 0.115018904 -0.040861912 0.034630492
-0.016151754 0.013078623 -0.0687375 -0.1348626 -0.085905366 -0.05685384 -0.052191455 -0.10769312
-0.029577253 0.046939243 -0.020448036 0.021790335 0.010556003 -0.0072207595 0.09286528 0.062515326
-0.040874287 -0.05263711 0.0084000025 -0.012043254 0.020703621 -0.020310625 0.1493119 -0.07466692
-0.0017719144 -0.0979947 0.06212307 0.033927217 0.12105144 0.032312874 -0.043338563 -0.03969907
0.14605743 0.11351603 -0.048739392 0.03288946 0.18391806 -0.12127062 -0.04882187 -0.19467318
0.13029787 -0.1169679 -0.07344515 0.04252466 0.014861193 0.00016483614 0.066026025 0.04618131
-0.013004839 0.020681076 0.17650135 -0.034079306 0.01872883 0.12015658 -0.0041672406 -0.12917839
-0.052968033 0.079045326 0.05042313 -0.17595364 0.031371538 0.03463128 0.080249555 0.1665233
-0.0354024 -0.15722592 -0.013344948 -0.10660043 0.08839494 0.15915066 -0.0062237736 0.013359289
-0.13133466 -0.0014118099 0.033641744 0.009846066 -0.016568145 -0.012004114 -0.04355508 -0.03875612
-0.009943219 0.056036167 0.0425046 -0.027585994 0.033895675 -0.010842603 -0.10825592 -0.013664118
00000000: f68a db3c 090c 113d 59a2 923d eb5a 8cbc
00000010: e0d6 603d 9a2d 343d cdf0 8fbd 2b64 533d
00000020: 0e29 0cbe b40a 39ba ccfe bb3c 45a9 54bc
00000030: 7a24 463d eb02 d1ba 440d 42bd c024 e33c
00000040: 25a0 f63c 9bd4 ba3d eab7 f3bd 6083 c1bd
00000050: 3dc1 d6bc e76e a5bc d8ad a83d 25e4 70bb
00000060: 199a 41be 71f4 55bc 9854 96bd d464 b13d
00000070: 26a5 afbd efd8 bc3c 4614 ab3d 4265 13be
00000080: c850 793d d82e 6b3c 15bb 533d 0db4 03be
00000090: 891a 10be 6f83 a73c 382d db3d a714 53b9
000000a0: 72be 14be e60f 593d 354e f53d 8f93 7f3d
000000b0: 7202 bdbd 6e6c ec3d 15e2 d1bd 51d8 0d3e
000000c0: a5a0 963c bd29 673d 70e0 c43c 653b 8dbd
000000d0: 52db f3bc 2f07 b5bd 3319 933d 8f3b 59bd
000000e0: 4fa5 8bbd 97c1 903c 1953 91bd 6417 8d3d
000000f0: d617 d7bd 25e4 2fbb 5ea3 b7bd 9c93 943d
00000100: 272e fcbd d6b6 7fbc 181d a7bd 7f97 c83d
00000110: baec 063d 851e 4f3e 6f6a 95bd a2c4 3e3e
00000120: 0b11 1a3d fa97 b4bd 89a1 19be a40e ba3d
00000130: d811 7bbc f56a e6bd a1dd 033e 3973 8fbd
00000140: 9c9a 1cbb 34f9 253d 0aa5 c23d e57d 833d
00000150: 3b73 5c3c 1bc7 103e c27c 423c d33c 1b3d
00000160: 8106 f0bd 7030 4cbc 9101 30be 3101 573d
00000170: 8c5e 783d 5aa2 56be f913 1cbc b795 5abe
00000180: fa8f 95bd 7569 bd3d d0d4 c6bd 9030 323e
00000190: dc59 973c c9fd 0b3e f272 9c3d 144a 3bbd
000001a0: 3cf3 aa3d 5596 9dbb 3ff5 f0bd 525f ab3d
000001b0: b72d f53d bba8 1bbc c205 f4bd e33a 013e
000001c0: 9a68 273e b2a1 2ebd c31f ecbd 663a 1b3d
000001d0: 831b 5abe 5e85 bf3d 2c5a 90bd c8bf aebd
000001e0: 0feb 04be 7d2c 053e 9df9 d2bc 6dfa c53c
000001f0: ff39 953d 8300 943d 41ab b5bd db96 54bd
00000200: 1b63 4b3d 233f 353e e0a8 323d 91f3 9b3d
00000210: 5daf 55bc 1e98 bcbc 9726 cebb 9820 db3d
00000220: 4ded ed3d ab6c 173d 07b6 c8bd fe40 99bd
00000230: 306b 1d3e d16a a5bd b109 0ebd 50e4 abbd
00000240: 1a60 433d 5559 2fbd df62 1cbe e36e 81ba
00000250: 77bd 7b3d afbe 72bc 6418 b43c bbf0 1f3e
00000260: 9acd 883e cc94 2c3d f2e9 483d e3cf ee3d
00000270: c075 733d 2b18 653c 931d 88bc 5182 88bd
00000280: 2a8b ea3c 6424 af3d 205b 8e3d ed6e ffbd
00000290: ac84 093d 088f eb3d d25e 27bd b4d8 0d3d
000002a0: af50 84bc b947 563c 3fc6 8cbd 6c19 0abe
000002b0: 27ef afbd 92df 68bd b5c6 55bd 368e dcbd
000002c0: ff4b f2bc 5d43 403d a482 a7bc a581 b23c
000002d0: 16f3 2c3c 1f9c ecbb 2730 be3d 0908 803d
000002e0: cc6b 27bd 039a 57bd 2aa0 093c 1251 45bc
000002f0: a49a a93c 7862 a6bc 38e5 183e f8ea 98bd
00000300: 953f e8ba 72b1 c8bd c374 7e3d 44f7 0a3d
00000310: d1e9 f73d 815a 043d c783 31bd 7e9b 22bd
00000320: 1490 153e 187b e83d f5a2 47bd 19b7 063d
00000330: 0455 3c3e bb5c f8bd 71f9 47bd 6858 47be
00000340: ce6c 053e de8c efbd 696a 96bd 562e 2e3d
00000350: 5c7c 733c ddd7 2c39 a738 873d 9d28 3d3d
00000360: 4012 55bc 5c6b a93c c5bc 343e be96 0bbd
00000370: 346d 993c a714 f63d 598d 88bb 5747 04be
00000380: 02f5 58bd 84e2 a13d 7c88 4e3d 312d 34be
00000390: 717f 003d 87d9 0d3d e159 a43d 1585 2a3e
000003a0: 1b02 11bd d5ff 20be c5a4 5abc 5451 dabd
000003b0: 6808 b53d 64f8 223e ccf0 cbbb ebe0 5a3c
000003c0: 987c 06be 7b0c b9ba edcb 093d 6551 213c
000003d0: ebb9 87bc e7ac 44bc d066 32bd bdbe 1ebd
000003e0: e2e8 22bc 2e86 653d 4e19 2e3d 06fc e1bc
000003f0: 31d6 0a3d 2ca5 31bc 48b5 ddbd 77df 5fbc

bias f4 [64]
0.058438037 0.045383547 0.06701311 0.070668854 0.0002807479 -0.10225663 0.07859286 -0.02185358
0.10821457 0.043590754 0.07117613 -0.013611152 -0.01108945 -0.008426725 0.09837424 -0.053560253
-0.0126372175 0.048021704 0.061424427 -0.0490992 -0.0427369 -0.075549826 0.051450416 0.05782155
0.012531183 0.014657786 0.0701057 0.033747714 -0.030380562 -0.06714364 0.054230746 0.013786023
0.043631785 -0.04303969 -0.05497561 0.012760087 -0.05221155 0.052554492 0.10989148 0.051202092
0.032607563 0.012233459 -0.015403787 0.08211592 -0.08018067 -0.021971388 0.09389369 -0.00698817
-0.004242887 -0.046042897 0.10603602 -0.031683885 -0.030252047 0.059867818 0.07711204 -0.023473984
0.1046945 0.010038675 -0.0066626384 -0.0330872 -0.03423706 0.070941836 0.015791047 0.0022196348
00000000: b95c 6f3d 19e4 393d 2b3e 893d d5ba 903d
00000010: 5831 9339 ed6b d1bd 4bf5 a03d 4706 b3bc
00000020: 9a9f dd3d 388c 323d cac4 913d 4f01 5fbc
00000030: 86b0 35bc 3f10 0abc 6f78 c93d ff61 5bbd
00000040: 550c 4fbc 68b2 443d 2e98 7b3d 3e1c 49bd
00000050: e30c 2fbd deb9 9abd acbd 523d 4ad6 6c3d
00000060: 974f 4d3c 3627 703c 9493 8f3d 0b3b 0a3d
00000070: a8e0 f8bc 9b82 89bd 0f21 5e3d c5de 613c
00000080: 3eb7 323d 634a 30bd 1b2e 61bd af0f 513c
00000090: c7db 55bd 6143 573d c90e e13d 49b9 513d
000000a0: 828f 053d d96e 483c 2a60 7cbc 642c a83d
000000b0: c335 a4bd 57fd b3bc 564b c03d 05fd e4bb
000000c0: ea07 8bbb 7a97 3cbd 6a29 d93d f6c6 01bd
000000d0: 24d3 f7bc f537 753d ebec 9d3d 834c c0bc
000000e0: 126a d63d 4179 243c 4352 dabb 7286 07bd
000000f0: 293c 0cbd f449 913d 3a5c 813c 4b77 113b

weight f4 [10, 64]
0.47434738 -0.1470868 -0.07215726 0.08486498 0.37516978 -0.36593014 -0.026943788 0.002180322
-0.14022933 -0.37501863 -0.6370144 -0.13087001 0.07421695 0.19714099 -0.0073301466 -0.15046182
0.013595679 -0.060827624 0.07615205 -0.3385612 0.095347285 -0.046522643 0.12329663 0.41477063
-0.2100758 -0.15734202 -0.053024527 -0.44408482 -0.09479285 0.121365696 0.5126524 0.1823233
0.5559614 0.0152926445 -0.16341752 0.014162713 0.073403805 0.12378492 0.33528084 -0.38851306
0.114540495 0.042340897 0.049629215 -0.22182758 0.51838 0.08597247 -0.034314334 -0.3722561
0.10603079 -0.3321996 0.017156282 -0.23686323 -0.2317033 0.10445105 0.16888355 -0.037707694
0.22694221 -0.20897615 -0.07161278 -0.16800125 0.008733572 -0.316562 -0.13925998 0.16599283
-0.0017511118 0.062093366 -0.3529289 -0.03652998 -0.15805636 0.62199515 -0.40554833 0.12978026
-0.47638026 -0.41922602 -0.17414379 0.2236406 0.05021804 0.036169264 -0.3355478 -0.13280801
0.101639256 -0.095358856 0.22635457 -0.097342424 0.256813 0.059102613 -0.08587673 -0.09742196
0.38186973 0.099163376 0.35183808 0.24056941 0.12875468 0.1509855 -0.121376656 -0.019614512
-0.2025978 0.3116609 -0.25250655 0.22398944 -0.024533609 -0.12113746 -0.36763465 0.2268352
-0.100573085 -0.07096595 0.51541036 0.0313825 0.0544877 0.020406513 0.39216048 0.058328375
-0.01589458 -0.120353974 -0.2367205 -0.27721167 -0.44333577 -0.0759884 -0.2311816 0.080084965
-0.5601472 0.4129243 0.24039112 -0.18824153 0.10332754 0.41090724 -0.0061494987 0.101833865
-0.07685216 -0.024652235 -0.15800142 0.2100828 -0.07480217 0.45966223 0.1733093 -0.0982088
0.60474664 0.11968017 -0.025097063 0.21919964 0.14940923 -0.049176 0.085439935 -0.039682385
0.22274809 0.038653836 0.11998128 0.5829467 -0.1202301 -0.1926427 -0.09930627 -0.084501244
-0.4280707 -0.12750177 -0.3216249 -0.21837978 0.2655009 0.24212267 -0.07222536 -0.14389655
0.14034094 0.104492806 -0.1830309 0.18466818 0.34289417 0.3658613 -0.13759708 -0.032803055
0.086197786 -0.10022454 -0.028254356 0.15362224 0.23262618 0.12093481 -0.06332927 -0.2777813
-0.17290348 0.032516655 -0.053881522 -0.01608787 0.36072952 -0.043406777 -0.004176232 -0.03759814
0.03565463 -0.26062453 0.18498126 0.21059187 -0.23532768 0.19901487 -0.11648921 -0.09047599
0.21821347 -0.21332371 -0.02282014 0.33856368 -0.10619954 0.020525502 -0.15793206 0.3842031
-0.35893437 0.3500429 0.29965633 0.46908563 -0.096981995 -0.37979692 0.18309505 0.20549719
0.0006632398 0.1803653 0.15511504 0.06032735 0.06473888 0.023954464 0.36627957 0.16478701
-0.4275978 0.09264787 0.3906295 0.5494496 -0.32676724 -0.11596669 0.1128698 -0.21465963
-0.32118306 -0.08334368 0.082341544 -0.2279173 -0.12781607 0.036507804 0.05560135 0.0037132783
-0.03748115 0.5032786 -0.29386985 -0.2960437 -0.62283 0.04707136 -0.3584562 -0.2955515
0.257355 -0.1769934 -0.53406686 0.20031731 -0.1394832 0.035245735 0.3753197 -0.02440787
-0.20208049 0.095493935 0.16781658 -0.22368836 -0.2543306 0.27582222 0.12906079 -0.118284516
00000000: a9dd f23e ec9d 16be 2fc7 93bd b1cd ad3d
00000010: 4116 c03e 325b bbbe 38b9 dcbc bce3 0e3b
00000020: 4798 0fbe 7102 c0be 6013 23bf ca02 06be
00000030: 0eff 973d 54df 493e ba31 f0bb aa12 1abe
00000040: 69c0 5e3c 6326 79bd 9bf5 9b3d e557 adbe
00000050: 7045 c33d 878e 3ebd f282 fc3d d15c d43e
00000060: 1c1e 57be 441e 21be 3f30 59bd 165f e3be
00000070: c122 c2bd 948e f83d 303d 033f f6b2 3a3e
00000080: 7c53 0e3f 008e 7a3c ec56 27be b90a 683c
00000090: bc54 963d f382 fd3d eea9 ab3e 2feb c6be
000000a0: 3594 ea3d a66d 2d3d 0148 4b3d c526 63be
000000b0: 8db4 043f 5612 b03d 308d 0cbd 5a98 bebe
000000c0: ac26 d93d 1116 aabe 558b 8c3c 468c 72be
000000d0: a143 6dbe 6fea d53d cfef 2c3e 6273 1abd
000000e0: 8a63 683e d8fd 55be b9a9 92bd 8508 2cbe
000000f0: 4217 0f3c 6a14 a2be 2b9a 0ebe 06fa 293e
00000100: 9085 e5ba 9d55 7e3d 19b3 b4be 76a0 15bd
00000110: 87d9 21be 133b 1f3f 08a4 cfbe 1ee5 043e
00000120: 1de8 f3be cba4 d6be c052 32be 0b02 653e
00000130: 6eb1 4d3d 3926 143d eccc abbe d3fe 07be
00000140: 3e28 d03d 814b c3bd 7ec9 673e 775b c7bd
00000150: fe7c 833e 9515 723d 24e0 afbd 2a85 c7bd
00000160: 6e84 c33e 2b16 cb3d 1f24 b43e d457 763e
00000170: 44d8 033e f19b 1a3e 5394 f8bd 9dae a0bc
00000180: cc75 4fbe 0492 9f3e 8a48 81be 7d5d 653e
00000190: b5fa c8bc eb16 f8bd 9c3a bcbe 7d47 683e
000001a0: 43f9 cdbd 9956 91bd eff1 033f f08a 003d
000001b0: 7f2e 5f3d 8f2b a73c 42c9 c83e bce9 6e3d
000001c0: 5a35 82bc 257c f6bd dc66 72be b0ee 8dbe
000001d0: e8fc e2be ce9f 9bbd dfba 6cbe 9603 a43d
000001e0: cf65 0fbf d06a d33e 1729 763e 63c2 40be
000001f0: 649d d33d 6f62 d23e bc81 c9bb 468e d03d
00000200: aa64 9dbd 7cf3 c9bc 20cb 21be f21f 573e
00000210: e131 99bd d958 eb3e fe77 313e b221 c9bd
00000220: add0 1a3f e11a f53d 5b98 cdbc df75 603e
00000230: bcfe 183e c66c 49bd 22fb ae3d ff89 22bd
00000240: 1318 643e 7c53 1e3d bfb8 f53d ff3b 153f
00000250: 333b f6bd 2144 45be 1661 cbbd fd0e adbd
00000260: 152c dbbe d38f 02be 05ac a4be f39e 5fbe
00000270: bcef 873e 01ef 773e e4ea 93bd 9e59 13be
00000280: 89b5 0f3e 5300 d63d 746c 3bbe a819 3d3e
00000290: d38f af3e 2c52 bb3e 40e6 0cbe 7f5c 06bd
000002a0: 7788 b03d 8642 cdbd ae75 e7bc 264f 1d3e
000002b0: 8f35 6e3e abac f73d c7b2 81bd 5a39 8ebe
000002c0: 9c0d 31be 2f30 053d dfb2 5cbd b5ca 83bc
000002d0: 8ab1 b83e 4ecb 31bd c6d8 88bb 8200 1abd
000002e0: 970a 123d 9470 85be ba6b 3d3e 65a5 573e
000002f0: bdf9 70be 8eca 4b3e e591 eebd 7a4b b9bd
00000300: 5a73 5f3e 8871 5abe 4df1 babc 3858 ad3e
00000310: 257f d9bd 1925 a83c f1b8 21be 45b6 c43e
00000320: 3fc6 b7be d338 b33e 8e6c 993e fe2b f03e
00000330: 7f9e c6bd be74 c2be 457d 3b3e db6d 523e
00000340: 45dd 2d3a aeb1 383e 7ad6 1e3e d019 773d
00000350: d195 843d 273c c43c ff88 bb3e edbd 283e
00000360: 19ee dabe 2bbe bd3d 9700 c83e bba8 0c3f
00000370: 094e a7be f27f edbd 4828 e73d bccf 5bbe
00000380: 1b72 a4be 17b0 aabd afa2 a83d 2763 69be
00000390: 37e2 02be 3589 153d 3ebe 633d 795a 733b
000003a0: d685 19bd ded6 003f 1c76 96be 0a93 97be
000003b0: c971 1fbf e6cd 403d 9287 b7be 8752 97be
000003c0: 09c4 833e c23d 35be 9bb8 08bf fb1f 4d3e
000003d0: afd4 0ebe d55d 103d e729 c03e 03f3 c7bc
000003e0: 30ee 4ebe 5392 c33d 1cd8 2b3e 900e 65be
000003f0: 9f37 82be 9238 8d3e 8328 043e 273f f2bd

bias f4 [10]
-0.025596948 -0.15451409 0.032807387 0.055589706 0.09262576 -0.13653564 0.007889475 0.04272327
0.20690843 -0.06651966
00000000: b1b0 d1bc f138 1ebe 0a61 063d 08b2 633d
00000010: 93b2 bd3d 00d0 0bbe db42 013c 98fe 2e3d
00000020: cedf 533e 763b 88bd
